models/AAPL_model.pth (torch, 793013 bytes, 17 tensors)

conv1.weight f4 [18, 18, 3]
0	0x3dd12d9d	0.10213778
1	0x3de3395e	0.11094926
2	0xbd0b14bf	-0.033955332
3	0x3dfc0ca0	0.123070955
4	0xbd027342	-0.0318482
5	0x3ccfba5b	0.025357416
6	0xbd8bb783	-0.068221115
7	0x3d9f7192	0.07785334
8	0x3df14d8c	0.11782369
9	0xbdcfed7e	-0.1015272
10	0x3deea0c2	0.11651756
11	0x3cc1ef6d	0.023673737
12	0x3dce4453	0.100716256
13	0x3c975abf	0.018475888
14	0x3d8630dd	0.06552289
15	0xbc963a86	-0.018338453
16	0x3dd86d8e	0.10567771
17	0x3caa8510	0.020815402
18	0xbd84b3e0	-0.06479621
19	0x3d08b0aa	0.033371605
20	0xbd831b0d	-0.06401644
21	0xbc90a1bd	-0.017655248
22	0xbd698474	-0.057011083
23	0x3db5502f	0.088531844
24	0xbdd640fe	-0.10461615
25	0xbd752595	-0.059850294
26	0xbd11160d	-0.03542142
27	0xbda3f262	-0.08005215
28	0x3c6f877c	0.014619704
29	0xbe07cfb9	-0.13262834
30	0x3df93d5c	0.121699065
31	0xbdef5ef5	-0.116880335
32	0x3dd46bf1	0.10372151
33	0x3ce01ac7	0.027356518
34	0xbd210cce	-0.039318852
35	0x3db68658	0.08912343
36	0x3cbaf248	0.022820607
37	0x3de47205	0.1115456
38	0x3c86c62b	0.016451916
39	0xbd2aaa77	-0.041666474
40	0x3d1aafd3	0.037765335
41	0xbd1273ac	-0.035754845
42	0x3d63374f	0.05547267
43	0x3df4fcc7	0.11962276
44	0x3d9d2ff5	0.07675163
45	0xbd7b26cb	-0.061316293
46	0x3d9d065f	0.07667231
47	0x3cb7e327	0.022447182
48	0x3d96f1e8	0.07370359
49	0xbda037d8	-0.07823151
50	0xbe04f8fe	-0.12985608
51	0xbd46fe92	-0.04858262
52	0xbdcd63fc	-0.10028836
53	0x3ded36ee	0.11582743
54	0x3d208c18	0.039196104
55	0x3d66e16c	0.056367323
56	0x3d30484c	0.043037698
57	0xbb1b2480	-0.0023672879
58	0x3dda1c68	0.10649949
59	0xbdc604b4	-0.09668866
60	0x3c0c61f0	0.008568272
61	0xbdbe38e5	-0.092881955
62	0x3d2bdfb4	0.041961387
63	0xbd3ff4fc	-0.046864495
64	0x3d2acb80	0.04169798
65	0xbce841cc	-0.028351687
66	0x3de72642	0.11286594
67	0xbda52f3e	-0.08065651
68	0xbda636f2	-0.08115949
69	0xbda63984	-0.08116439
70	0x3dfaac28	0.122398674
71	0x3d39c0a4	0.045349732
72	0x3e0616a4	0.13094574
73	0xbde600a0	-0.11230588
74	0xbe0a377a	-0.13497725
75	0xbdda0af7	-0.10646623
76	0xbdbb7a0e	-0.091541395
77	0x3d61c470	0.055118978
78	0x3d4796f8	0.04872796
79	0x3de7939a	0.1130745
80	0xbd8fed2d	-0.070276596
81	0xbdbdfdcb	-0.09276923
82	0x3d93deee	0.07220255
83	0xbd614d34	-0.055005267
84	0x3da925ee	0.08259188
85	0xbd04452c	-0.03229253
86	0x3d9f6d82	0.07784559
87	0xbdd889ff	-0.10573196
88	0xbd8ca507	-0.06867414
89	0x3d29efc4	0.041488424
90	0x3cebacd0	0.028768927
91	0xbd0e1cdc	-0.03469549
92	0x3da61f82	0.081114784
93	0x3dbd760c	0.09251031
94	0xbdca1aa0	-0.098683596
95	0xbd94c9a9	-0.07265026
96	0x3dff3154	0.124605805
97	0xbd3c154c	-0.045918748
98	0xbd459b0e	-0.048243575
99	0xbe06d546	-0.13167295
100	0xbd9f9a0d	-0.07793055
101	0x3d0b3d44	0.033993974
102	0xbc932508	-0.017961994
103	0xbdca4d78	-0.09878057
104	0x3b5131c0	0.0031920522
105	0xbdbe5f84	-0.09295562
106	0xbdec7230	-0.11545217
107	0xbd9977e3	-0.0749357
108	0xbdfbd92b	-0.12297281
109	0xbdb7f51a	-0.08982296
110	0x3e092dbe	0.13396356
111	0x3cb2d5da	0.021830488
112	0x3d1e3f87	0.038634803
113	0xbe03fd17	-0.12889515
114	0xbdbef590	-0.09324181
115	0xbd46b25e	-0.048509948
116	0x3c9bf78b	0.019038936
117	0xbdffaaa7	-0.12483721
118	0xbd810ce3	-0.06301286
119	0xbdac4fa3	-0.08413627
120	0xbb3cc2de	-0.0028802673
121	0xbd5c7b09	-0.053828273
122	0xbc38882b	-0.011262934
123	0xbdc4033e	-0.09570931
124	0xbdc68efc	-0.09695241
125	0xbda80c25	-0.082054414
126	0xbd5149e8	-0.051095873
127	0xbde571bd	-0.112033345
128	0x3de47f55	0.11157099
129	0xbd05dc77	-0.032680955
130	0x3de608fc	0.112321824
131	0x3d225f54	0.039641693
132	0xbdf43f67	-0.119261555
133	0x3db78925	0.08961705
134	0xbd21cebe	-0.039503805
135	0xbd63f624	-0.05565466
136	0xbdeef269	-0.1166733
137	0xbe0c4797	-0.13699184
138	0x3d0f9ecd	0.035063554
139	0xbd072b6f	-0.033000406
140	0x3d50958d	0.050923873
141	0xbdec7ab2	-0.1154684
142	0x3dc61045	0.09671072
143	0xbdcfcf22	-0.10146929
144	0xbcdc8f91	-0.026923927
145	0x3ccb0ab8	0.024785385
146	0x3d8bfe3d	0.068356015
147	0x3dda51d0	0.10660136
148	0x3df6bfb4	0.12048283
149	0xbde0dcf4	-0.109796435
150	0x3cf10219	0.029419946
151	0xbd804ef4	-0.06265059
152	0xbc8f2882	-0.01747537
153	0xbddb22be	-0.10699986
154	0x3df48c99	0.119408794
155	0xbdd1dad1	-0.10246814
156	0x3d8d5459	0.06900854
157	0x3d31c32b	0.043399017
158	0x3d2a3331	0.041552726
159	0xbd9e27fc	-0.0772247
160	0x3df48108	0.11938673
161	0x3cdd4f1d	0.027015263
162	0x3c21219c	0.009834673
163	0xbe02662f	-0.12734292
164	0x3d61e5c2	0.055150755
165	0xbce5b43c	-0.028040044
166	0xbd8ebc58	-0.069695175
167	0x3deb6419	0.114937015
168	0x3cb9b8ad	0.022671068
169	0xbda97bba	-0.08275552
170	0xbd913d38	-0.07091755
171	0xbc66cf2c	-0.01408748
172	0x3d8c763b	0.06858488
173	0xbd16ad37	-0.036786284
174	0xbdb54c18	-0.08852404
175	0xbd6ac16e	-0.057313375
176	0xbdd597ef	-0.1042937
177	0x3d1b2997	0.03788146
178	0x3dc2ba08	0.09508139
179	0xbe0567aa	-0.13027826
180	0x3cc7b686	0.024379026
181	0x3d81a4d0	0.063302636
182	0x3cb99aa1	0.02265674
183	0xbd65e728	-0.05612865
184	0x3d820dbe	0.06350277
185	0x3d8e4d80	0.06948376
186	0x3d2b05a5	0.04175343
187	0xbd0481d7	-0.032350387
188	0xbd19c82b	-0.03754441
189	0x3b87b2c8	0.0041411854
190	0xbd0b37a1	-0.0339886
191	0xbd2febc1	-0.04294944
192	0x3da1b0e0	0.07895064
193	0x3ddfa4ed	0.10920129
194	0xbc7e2163	-0.01551089
195	0xbd2d19db	-0.042260986
196	0xbc15a787	-0.00913418
197	0xbc266979	-0.010156983
198	0x3cb71dc8	0.022353068
199	0x3ce7d705	0.028300771
200	0xbe00d9c5	-0.12583072
201	0xbd79e665	-0.061010737
202	0x3dd5ca69	0.10438997
203	0x3d4f62a1	0.05063117
204	0xbc6996ae	-0.014257116
205	0xbdb6ec0b	-0.089317404
206	0xbdae8e86	-0.08523278
207	0xbe04450b	-0.12916963
208	0xbd52abd9	-0.051433418
209	0x3d341b7d	0.043971527
210	0x3d99e6af	0.075147025
211	0x3d52e7b1	0.05149049
212	0xbdfa86dd	-0.122327544
213	0xbdbe208c	-0.092835516
214	0xbd0411ed	-0.032243658
215	0x3e04b28e	0.12958738
216	0x3ca14340	0.019685388
217	0xbd105958	-0.035241455
218	0x3d669a54	0.056299523
219	0xbd544d2e	-0.051831417
220	0xbdb46378	-0.08808035
221	0x3dcb6af2	0.099325076
222	0xbd7d72d2	-0.06187708
223	0xbcdf7a74	-0.02728007
224	0xbe0a9fef	-0.13537572
225	0x3dba8628	0.091076195
226	0x3dd326a0	0.103101015
227	0x3d4b2440	0.049595118
228	0xbdc2541e	-0.094887
229	0xbe098763	-0.13430552
230	0xbde25a2e	-0.11052357
231	0x3dcfd326	0.10147695
232	0x3d85cde6	0.06533413
233	0x3dea8674	0.11451426
234	0x3d920050	0.07128966
235	0x3d0d1284	0.034441486
236	0xbaaeab00	-0.0013326108
237	0xbdd3f37e	-0.10349177
238	0xbdeec7c0	-0.11659193
239	0xbe0256f4	-0.12728482
240	0x3d642d24	0.055707112
241	0xbd88d4e1	-0.066812284
242	0xbce05ab8	-0.027387008
243	0xbda06452	-0.078316346
244	0xbccb2418	-0.024797484
245	0xbdc42833	-0.0957798
246	0xbdb61af6	-0.08891861
247	0x3d38e4dc	0.045140132
248	0xbd25a7e2	-0.04044331
249	0x3dac0d50	0.08400977
250	0xbd32d134	-0.043656543
251	0xbdcc7180	-0.09982586
252	0xbcc4b140	-0.0240103
253	0xbd871910	-0.06596577
254	0xbd2a87c2	-0.041633375
255	0xbe04a8cf	-0.1295502

conv1.bias f4 [18]
0	0x3d1ee4b2	0.03879232
1	0xbd59427e	-0.053041928
2	0x3de542ad	0.11194358
3	0xbcf327ed	-0.029682124
4	0xbd5900d0	-0.05297929
5	0x3dba50f0	0.09097469
6	0x3dd6f0fa	0.104951814
7	0x3e06aa5f	0.13150929
8	0x3d32348f	0.043507155
9	0xbd4f0df3	-0.050550412
10	0x3d7f626e	0.06234973
11	0x3e048ee6	0.12945136
12	0xbe10ba9c	-0.14133686
13	0xbcc51406	-0.0240574
14	0xbdbe0fe4	-0.09280375
15	0x3c8e5102	0.017372612
16	0x3d5b4ff6	0.053543054
17	0xbce64d58	-0.028113052

conv2.weight f4 [18, 18, 5]
0	0xbc33f711	-0.010984198
1	0x3d39e011	0.045379702
2	0xbca1a5c6	-0.019732367
3	0xbdba5813	-0.0909883
4	0x3da997a2	0.08280875
5	0xbd623f5a	-0.055236198
6	0xbc5fefab	-0.013667981
7	0x3c018921	0.007906229
8	0xbc0fddde	-0.008780925
9	0xbdce3640	-0.10068941
10	0x3d3d607c	0.046234593
11	0xbd4c7e6e	-0.04992526
12	0xbd680bd9	-0.056651924
13	0x3cba55fb	0.022746077
14	0xbd6b33ba	-0.057422377
15	0xbd510e97	-0.051039305
16	0xbd1ac463	-0.037784945
17	0xbd2b3aaa	-0.041803993
18	0xbd3d64df	-0.046238776
19	0xbcf46fdd	-0.029838497
20	0x3ccb971e	0.024852332
21	0xbdb3d724	-0.08781269
22	0xbd87cd5d	-0.06630967
23	0xb9f31019	-0.00046360565
24	0x3c4fff8b	0.012695204
25	0x3d641d00	0.05569172
26	0xbd9cb798	-0.07652205
27	0x3cffb630	0.031214803
28	0x3d6e0e66	0.0581192
29	0x3d687848	0.056755334
30	0xbdce7662	-0.100811735
31	0xbd2f6b9b	-0.04282723
32	0xbdbed42a	-0.09317811
33	0xbd8bb863	-0.06822278
34	0x3d6a5561	0.05721033
35	0xbc94f1be	-0.018181678
36	0x3d2db271	0.042406503
37	0xbd8361be	-0.06415127
38	0x3c704ebb	0.014667208
39	0xbd8556fc	-0.065107316
40	0x3d489b3f	0.04897618
41	0xbd4c1662	-0.049826033
42	0xbcf74938	-0.03018628
43	0xbdc02e2d	-0.09383807
44	0xbaf97deb	-0.0019034719
45	0x3dc71c10	0.09722149
46	0x3d464a7f	0.04841089
47	0xbd72114c	-0.059098527
48	0xba0afb17	-0.00053016975
49	0xbc5cb6b5	-0.013471295
50	0xbdb26874	-0.08711329
51	0x3da4de4e	0.08050214
52	0xb9ce831d	-0.0003938907
53	0x3ca13f83	0.019683605
54	0xbd34b58b	-0.044118445
55	0xbd57f398	-0.052722543
56	0x3c64b344	0.013958756
57	0x3d1170f4	0.03550811
58	0x3cafd3ac	0.021463238
59	0xbd58b260	-0.052904487
60	0x3dcbcf78	0.09951681
61	0xbc961a4d	-0.018323088
62	0xbd89ec13	-0.06734481
63	0xbd520f77	-0.05128428
64	0x3dd095cb	0.10184821
65	0xbb326796	-0.0027222387
66	0xbc8b4c59	-0.017004179
67	0xbd3e998a	-0.046533145
68	0xbcf2654b	-0.029589316
69	0xbdb9bddf	-0.09069418
70	0xbdb038e7	-0.08604603
71	0x3d73a3df	0.05948245
72	0x3db446cd	0.08802567
73	0x3dc9285c	0.09822151
74	0xbd9ec3f5	-0.077522196
75	0x3d5fc5dc	0.054632053
76	0xbd8a6018	-0.0675661
77	0x3d784f51	0.060622517
78	0x3d98d28c	0.07462034
79	0x3da43be6	0.08019237
80	0x3d94dcfe	0.072687134
81	0x3d805741	0.06266642
82	0xbaa85426	-0.0012842461
83	0x3d3d3c4e	0.04620009
84	0xbd232b22	-0.039836057
85	0x3d2f1e5e	0.04275357
86	0xbd17badb	-0.037043434
87	0xbba243e9	-0.004951943
88	0xbdc022ca	-0.093816355
89	0xbcf1bb39	-0.02950822
90	0xbd80e9a3	-0.06294563
91	0xbd31e60b	-0.043432277
92	0xbd9a1448	-0.075233996
93	0xbdd27b9c	-0.10277483
94	0xba94ae1a	-0.001134339
95	0x3d796213	0.060884546
96	0x3db47b02	0.088125244
97	0x3d5b8333	0.05359192
98	0xbd8034e3	-0.06260087
99	0xbde5de5e	-0.11224054
100	0x3d050119	0.03247175
101	0x3d51b788	0.05120042
102	0xbdc9870b	-0.098402105
103	0x3cf476f9	0.029841887
104	0x3da62a69	0.08113558
105	0xba9abe44	-0.0011805971
106	0xbd923e50	-0.071407914
107	0x3da0b97b	0.078478776
108	0x3d179f89	0.03701738
109	0x3d7d0d25	0.061780114
110	0xbda08bdd	-0.07839177
111	0x3d5bf9e4	0.05370511
112	0xbda34592	-0.07972254
113	0x3dc5c0d7	0.09655922
114	0xbd56e4cf	-0.052464303
115	0x3d66213a	0.05618403
116	0x3c58b9e6	0.013227915
117	0x3ca397c3	0.019969827
118	0xbcc5fdd0	-0.024168879
119	0x3d1073a9	0.035266552
120	0xbd531c26	-0.051540516
121	0xbddbc285	-0.10730461
122	0xbd46a0a6	-0.04849305
123	0x3d98a9f1	0.07454289
124	0xbd12c316	-0.03583058
125	0x3cd182c3	0.025575047
126	0xbd3ffe74	-0.046873525
127	0x3d91ab54	0.07112756
128	0x3d61a36e	0.0550875
129	0x3cef0f87	0.029182209
130	0xbd7be32b	-0.06149594
131	0xbdc05dc2	-0.09392883
132	0xbb7d98b3	-0.0038695752
133	0xbd8ed625	-0.069744386
134	0x3da13c02	0.07872774
135	0xbdde692b	-0.10859903
136	0x3d206cc0	0.039166212
137	0x3dc6ba02	0.09703447
138	0x3d3743c0	0.044742346
139	0x3ce3d0d2	0.027809534
140	0xbddf1446	-0.10892539
141	0x3dbf7345	0.09348158
142	0xbcd4fd78	-0.02599977
143	0xbdda22e5	-0.10651187
144	0x3dc49f03	0.096006416
145	0xbd4d7dcc	-0.050168797
146	0xbc771dc4	-0.01508278
147	0x3db5c1ee	0.0887488
148	0xbda597f9	-0.08085627
149	0xbda8cf22	-0.082426324
150	0x3c20971b	0.009801651
151	0xbcb46035	-0.022018531
152	0x3c8549d5	0.016270557
153	0xbdc58e66	-0.09646301
154	0xbba28f98	-0.0049609654
155	0xbd5dec45	-0.054180402
156	0xbd747165	-0.059678454
157	0xbdd5f75a	-0.10447569
158	0x3d441e11	0.047880236
159	0x3c489623	0.012242827
160	0xbdc5fe34	-0.09667626
161	0x3d9b2363	0.07575109
162	0x3cc36e68	0.023856357
163	0x3c3d9674	0.011571515
164	0xbd8f2b2d	-0.06990657
165	0x3c08524c	0.008320402
166	0x3dbfd35e	0.09366487
167	0x3d83cd8e	0.06435691
168	0xbdb883f0	-0.0900954
169	0x3db49f9f	0.08819508
170	0x3a7158e9	0.0009206669
171	0x3d311c3b	0.043239813
172	0x3d983011	0.07431043
173	0x3da87523	0.08225467
174	0xbdb80378	-0.089850366
175	0x3dae17ad	0.085006095
176	0xbda22a3a	-0.0791821
177	0x39a3f327	0.00031270945
178	0xbda66fae	-0.0812677
179	0xbcfc03cf	-0.030763535
180	0xbbdb6fbd	-0.00669667
181	0xbc722d40	-0.014781296
182	0xbc9c95b3	-0.01911435
183	0x3bb9798c	0.0056602415
184	0x3dced3ac	0.10098967
185	0x3d732a97	0.05936679
186	0x3d68cc7b	0.056835633
187	0x3d22e3e0	0.0397681
188	0x3da1c7c7	0.07899433
189	0xbbffe6e5	-0.007809507
190	0x3bd3c189	0.00646228
191	0x3c9fd438	0.019510373
192	0xbdc157a2	-0.09440543
193	0xbdb35d01	-0.087579735
194	0x3c2291ee	0.009922488
195	0xbd2db3d1	-0.042407814
196	0xbb570b93	-0.0032813295
197	0xbcd2ca47	-0.025731219
198	0x3c7103b6	0.014710357
199	0x3d886012	0.06658949
200	0xbd1859d6	-0.03719505
201	0x3da7749b	0.081765376
202	0x3da41076	0.08010952
203	0xbdacabb6	-0.08431189
204	0xbdae8316	-0.085210964
205	0xbdaea4ee	-0.085275516
206	0xbd6dfdb1	-0.058103267
207	0xbd2afebe	-0.041746847
208	0xbc115020	-0.008869201
209	0xbcdc6480	-0.02690339
210	0xbd5cbdce	-0.05389195
211	0xbd0c4678	-0.03424689
212	0xbd1fd5f4	-0.0390224
213	0x3dd1b518	0.10239619
214	0xbd25460c	-0.040350005
215	0xbd9ce0a5	-0.07660035
216	0x3d2e841b	0.042606454
217	0xbbf25a28	-0.0073960014
218	0x3da25c07	0.07927709
219	0x3d8375ae	0.0641893
220	0x3dc79e87	0.097470336
221	0xbd9ca262	-0.076481596
222	0x3d8c8423	0.068611406
223	0x3db6e39a	0.0893013
224	0xbd521a94	-0.051294878
225	0x3dc5aba2	0.09651877
226	0x3da0e127	0.078554444
227	0x3a196b1c	0.00058524474
228	0x3d4d797e	0.050164692
229	0xbd1a819b	-0.037721258
230	0xbdbed650	-0.093182206
231	0x3cce1bc1	0.025159718
232	0x3cf31966	0.029675197
233	0xbd9101e7	-0.07080441
234	0x3d484e37	0.048902716
235	0xbdb4dda7	-0.08831339
236	0x3dbda175	0.09259311
237	0x3dd54e43	0.10415318
238	0x3cfcc2ca	0.030854601
239	0xbd82fc18	-0.06395739
240	0x3d4fc0b2	0.050720878
241	0x3c8d620c	0.017258666
242	0x3ce3d14a	0.027809758
243	0x3d09e5c9	0.033666406
244	0x3da1dcc1	0.079034336
245	0xbd3dbac8	-0.046320707
246	0xbccc52ed	-0.024941886
247	0x3cdf7051	0.027275236
248	0x3c215ffb	0.009849544
249	0x3daa256d	0.0830792
250	0xbd68445b	-0.056705814
251	0xbbb00184	-0.0053712744
252	0x3c9312f7	0.01795338
253	0xbcf4e9a1	-0.02989656
254	0x3d8ea8a9	0.06965763
255	0x3c2822ba	0.010262186

conv2.bias f4 [18]
0	0x3dc40339	0.09570927
1	0xbb646231	-0.0034848566
2	0x3d8541c5	0.06506685
3	0xbdb51eeb	-0.08843788
4	0xbd718057	-0.058960285
5	0x3c917f55	0.017760912
6	0x3dadf724	0.08494404
7	0x3d78b604	0.06072046
8	0x3cd67e51	0.02618328
9	0xbdd55c87	-0.10418039
10	0xbb00e45a	-0.0019667358
11	0xbd8e8064	-0.06958082
12	0xbdbc6b58	-0.09200162
13	0x3c6277fb	0.013822551
14	0xbd889657	-0.066693
15	0x3dc49d62	0.09600331
16	0xbd728584	-0.05920936
17	0x3d05ad40	0.032635927

gru.weight_ih_l0 f4 [384, 36]
0	0x3d770215	0.06030472
1	0xbd8cb1e8	-0.068698704
2	0x3d26815f	0.04065072
3	0xbc410d31	-0.01178293
4	0x3d3b984e	0.045799546
5	0x3db18b31	0.08669127
6	0xbd10cd4a	-0.03535203
7	0xbd1ab418	-0.037769407
8	0x3d970e1d	0.07375739
9	0x3ca9e0c4	0.02073706
10	0x3babb78e	0.0052403873
11	0x3c724766	0.0147875305
12	0xbcb65e23	-0.022261685
13	0x3b47c1c3	0.0030480481
14	0x3d78acf6	0.060711823
15	0x3d1188d8	0.035530895
16	0xbd54a3d8	-0.051914066
17	0x3cbc3320	0.022973597
18	0xbd8cbdd0	-0.06872141
19	0xbd3c98b4	-0.046044067
20	0x3d78fde6	0.06078901
21	0xbc7c46c8	-0.015397735
22	0xbd3875d5	-0.04503425
23	0x3bff690c	0.007794505
24	0x3cb0ec49	0.021597045
25	0xbd55177a	-0.052024342
26	0xbd8d74fb	-0.06907078
27	0xbd9998dc	-0.07499859
28	0x3cbfb4a9	0.023401575
29	0xbd699917	-0.057030763
30	0x3c619e8a	0.013770709
31	0x3bae7c25	0.005324858
32	0xbd6cb8fc	-0.057793602
33	0xbd17fcb3	-0.037106227
34	0xbd7ed9de	-0.062219493
35	0xbd21d734	-0.039511874
36	0x3c35bde8	0.01109264
37	0xbd9ac194	-0.07556453
38	0xbd5f4248	-0.05450657
39	0x3d93057e	0.07178782
40	0x3c0844c0	0.0083171725
41	0xbc0c75af	-0.00857298
42	0xba3bf4fa	-0.0007169988
43	0x3db6185b	0.08891364
44	0xbd4c7fca	-0.049926557
45	0xbd1c5fb6	-0.038177215
46	0xbd6fec6b	-0.058575075
47	0x3d85c865	0.06532363
48	0xbb14d28a	-0.00227085
49	0xbd6215d4	-0.0551966
50	0x3d7b4906	0.061348937
51	0xbd5af351	-0.0534547
52	0x3dced9a1	0.10100103
53	0xbd79375a	-0.060843803
54	0xbb2c0ce3	-0.0026252798
55	0x3c8deb6d	0.017324174
56	0xbc929043	-0.017891055
57	0x3dc30067	0.09521561
58	0xbd5996f6	-0.053122483
59	0x3cafec66	0.021475028
60	0xbd2a7667	-0.041616824
61	0x3d4de4ac	0.050266907
62	0x3de7124e	0.11282788
63	0x3dbed22a	0.09317429
64	0x3c2b73ba	0.010464603
65	0xbd3540c1	-0.044251207
66	0x3dce0e60	0.100613356
67	0x3d2b9a4b	0.041895192
68	0x3d74f272	0.059801526
69	0x3af5ec22	0.001876239
70	0xbc9f7910	-0.019466907
71	0xbd714436	-0.05890294
72	0x3dc69150	0.09695685
73	0x3c7039e0	0.014662236
74	0xbd85a548	-0.065256655
75	0x3c0fce1c	0.008777168
76	0xbd1b47be	-0.037910216
77	0x3b468328	0.0030290578
78	0x3cd519cc	0.026013277
79	0xbcffd83f	-0.031231044
80	0x3cab39f6	0.020901661
81	0xbd14d2dc	-0.036333904
82	0x3d133c11	0.035945956
83	0xbd8f0051	-0.06982482
84	0x3cfa4213	0.030549085
85	0x3daf675e	0.085646376
86	0x3da6bd3d	0.08141563
87	0x3d23f1e6	0.040025614
88	0x3d97b56a	0.07407649
89	0x3dafff5b	0.08593627
90	0x3cc15633	0.023600673
91	0x3d0010e5	0.031266112
92	0x3c62e286	0.013847953
93	0x3dc1b4cc	0.094583124
94	0x3d9c2007	0.07623296
95	0xbd1360eb	-0.0359811
96	0xbba512ac	-0.0050376263
97	0xbd1cf1fd	-0.038316716
98	0x3d2ba7bd	0.041908015
99	0xbd9a534c	-0.07535419
100	0x3cf3aee4	0.02974648
101	0xbcc6b8cc	-0.02425804
102	0x3d45433d	0.048159827
103	0x3d19a8a4	0.037514344
104	0xbd342841	-0.0439837
105	0x3d267b32	0.040644832
106	0x3d2deac3	0.042460214
107	0xbd76808d	-0.06018119
108	0x3dbfe2ac	0.09369406
109	0x3d9bd01f	0.07608055
110	0x3d61dace	0.05514031
111	0xbc0497f1	-0.008092866
112	0x3d004410	0.03131491
113	0xbd1e7771	-0.038688127
114	0xbcde10cc	-0.027107619
115	0x3d25aaf5	0.04044624
116	0x3d2e27c3	0.04251839
117	0x3d2857f7	0.041099515
118	0xbd9b24fd	-0.07575414
119	0x3d1aa58c	0.037755534
120	0xbcd155af	-0.025553552
121	0x3dac710a	0.08419998
122	0x3d9526ad	0.072827674
123	0x3d0af5a5	0.03392567
124	0x3dbd3db2	0.09240283
125	0x3d4fe3d2	0.050754376
126	0x3d57b578	0.052663296
127	0xbce2577b	-0.027629605
128	0x3db199be	0.08671902
129	0x3cdf536d	0.02726146
130	0x3d5ed472	0.054401822
131	0xbc8f5a5e	-0.017499145
132	0x3d89c88d	0.06727705
133	0x3da98af7	0.082784586
134	0xbd9b3954	-0.07579294
135	0x3da42fa3	0.080168985
136	0xbd68d2b9	-0.056841586
137	0xbd794104	-0.06085302
138	0xbd8dcbf4	-0.069236666
139	0x3d491d7f	0.049100395
140	0xbd87ea0d	-0.066364385
141	0xbd015841	-0.031578306
142	0xbd191a09	-0.037378345
143	0x3ce8c99b	0.028416445
144	0xbdc13b62	-0.094351545
145	0xbd25f938	-0.040520877
146	0xbab6165a	-0.0013892159
147	0x3bd02e3f	0.006353169
148	0xbd238168	-0.039918333
149	0x3cb8a8ac	0.022541367
150	0xbd7caf4b	-0.06169061
151	0xbda0ff1b	-0.078611575
152	0xbc8fc797	-0.017551227
153	0xbd66e344	-0.05636908
154	0x3d323704	0.0435095
155	0xbc893e64	-0.016753383
156	0xbcc02ea6	-0.023459744
157	0x3cf271ec	0.029595338
158	0xbd9e8693	-0.07740512
159	0x3d89f113	0.067354344
160	0xbd3bb0e9	-0.04582301
161	0xbcc50884	-0.024051912
162	0xbd62c3a5	-0.055362362
163	0xbd125a1f	-0.035730477
164	0xbd20abf4	-0.039226487
165	0xbdb002a7	-0.08594256
166	0x3ced0211	0.02893165
167	0xbb84b851	-0.0040502925
168	0x3dabee71	0.083950885
169	0x3d5bffd0	0.05371076
170	0x3da5c20f	0.08093654
171	0x3c883fed	0.016632045
172	0x3d3439d0	0.044000447
173	0x3da980f5	0.0827655
174	0x3d87775b	0.06614562
175	0xbdb6a002	-0.08917238
176	0xbca25be8	-0.019819215
177	0xbdb1d47a	-0.08683105
178	0xbb3e2606	-0.0029014363
179	0xbd1b37c6	-0.037894987
180	0x3d939148	0.072054446
181	0x3c64f5f8	0.013974659
182	0x3a874f6c	0.0010323352
183	0xbd852dfb	-0.06502911
184	0xbd8e0d2d	-0.06936107
185	0x3c584618	0.013200305
186	0xbd34e030	-0.044159114
187	0xbd1cd559	-0.0382894
188	0x3d7f1f59	0.062285755
189	0xbd5950a7	-0.05305543
190	0xbd47cdd6	-0.048780285
191	0x3dc2ed17	0.095178775
192	0x3ca9d5d4	0.020731844
193	0xbd5d000f	-0.053955134
194	0x3cdb4920	0.026768267
195	0x3d338c5c	0.04383503
196	0xbda61232	-0.08108939
197	0x3c874350	0.01651159
198	0x3c9a4b5a	0.018834759
199	0xbbc42fed	-0.0059871585
200	0x3da8b02f	0.08236729
201	0xbd809da3	-0.06280067
202	0x3d3a2265	0.045442957
203	0xbd3e201c	-0.04641734
204	0xbd9e9bd5	-0.07744566
205	0x3d71b826	0.05901351
206	0xbd1110b2	-0.035416313
207	0xbb285363	-0.0025684468
208	0x3d3d1e0a	0.046171226
209	0xbd9716e5	-0.07377414
210	0xbda42026	-0.08013944
211	0x3c895f25	0.016769001
212	0x3d9dd5df	0.07706808
213	0x3ba65afc	0.005076764
214	0x3d73885c	0.059456214
215	0x3cdb573e	0.026774999
216	0x3cbcdc56	0.023054283
217	0xbd66d360	-0.056353927
218	0x3db13c5d	0.086540915
219	0x3d217f01	0.03942776
220	0x3c5feb30	0.013666913
221	0x3d86aa8a	0.065754965
222	0xbd96b22a	-0.07358201
223	0x3cc14f95	0.023597518
224	0xbd35b7a9	-0.044364605
225	0xbc2e6fba	-0.010646755
226	0x3cf51a79	0.02991985
227	0x3d7f6a32	0.062357135
228	0x3cacc860	0.02109164
229	0xbd92aa4f	-0.0716139
230	0xbd629359	-0.055316303
231	0x3a28fa71	0.000644601
232	0xbc9294cf	-0.017893223
233	0xbd97840a	-0.07398231
234	0x3db49d76	0.08819096
235	0x3c5521ae	0.013008518
236	0xbd8577e7	-0.0651701
237	0x3d1e4324	0.03863825
238	0x3d191aca	0.037379064
239	0xbd3bd9b0	-0.0458619
240	0x3d2c21b1	0.042024318
241	0xbd6fe506	-0.058568023
242	0x3d01a778	0.03165385
243	0x3da5293c	0.080645055
244	0x3d6fdb7c	0.058558926
245	0x3d32bc06	0.043636344
246	0xbca8b87a	-0.020595778
247	0xbb720307	-0.0036928074
248	0x3cfcada0	0.03084451
249	0x3d056e48	0.032575876
250	0xbcb9bae4	-0.022672124
251	0x3c22a628	0.00992731
252	0x3c0ae9e7	0.008478618
253	0xbd4ca607	-0.049963024
254	0xbd93ab2e	-0.07210384
255	0xbd869426	-0.06571226

gru.weight_hh_l0 f4 [384, 128]
0	0xbda7bcb7	-0.081902914
1	0x3d283bcd	0.041072655
2	0xbd7eaac4	-0.062174574
3	0x3db024c7	0.08600765
4	0x3da131b3	0.078708075
5	0xbcb3a855	-0.021930853
6	0xbc5b1a75	-0.013373007
7	0xbd6b7603	-0.05748559
8	0x3d9fbf72	0.07800187
9	0xbd3aa837	-0.04557058
10	0x3d0a226d	0.033724237
11	0x3d4ff450	0.050770104
12	0xbdcad757	-0.09904354
13	0xbdbb8635	-0.09156457
14	0xbd58fd3e	-0.052975886
15	0xbc9812d1	-0.01856366
16	0x3c8f2aba	0.017476428
17	0xbca9df85	-0.020736465
18	0xbd1a60ff	-0.03769016
19	0x3d76569a	0.060141183
20	0x3d8c461b	0.06849309
21	0x3d46ee6d	0.048567224
22	0x3d9d4fa9	0.076812096
23	0xbd9c1e56	-0.076229736
24	0xbd9ee17b	-0.07757851
25	0x3c73b38b	0.014874349
26	0xbd924988	-0.07142931
27	0xbcec4389	-0.028840797
28	0x3d65aa29	0.05607048
29	0x3da613c6	0.0810924
30	0xbc622159	-0.013801896
31	0xbd99e791	-0.07514871
32	0xbd21bd99	-0.039487455
33	0x3da84211	0.08215726
34	0xbc138ea2	-0.009006174
35	0xbd8659d3	-0.06560101
36	0xbd33b43e	-0.043873064
37	0xbd481101	-0.04884434
38	0xbcebe8a2	-0.028797451
39	0xbd907fe4	-0.07055643
40	0xbd0bda3c	-0.03414367
41	0x3dc460aa	0.0958875
42	0xbd41b901	-0.047295574
43	0xbcbfe3d9	-0.023424076
44	0x3d67e1f2	0.056611963
45	0xbda0f424	-0.07859066
46	0xbd194a91	-0.037424628
47	0xbbc346da	-0.005959374
48	0x3d82a429	0.06378967
49	0x3c626432	0.013817834
50	0x3b80fd90	0.003936477
51	0xbcc46312	-0.023973022
52	0x3d5b28e1	0.053505782
53	0xbd19b894	-0.037529543
54	0xbbb381a9	-0.005478103
55	0xbd1b643d	-0.03793739
56	0x3d0eae6e	0.034834318
57	0x3dc2d7e7	0.09513836
58	0xbd930430	-0.07178533
59	0xbc19e72c	-0.009393495
60	0xbbeb6b95	-0.0071844556
61	0xbd4c08b1	-0.049812976
62	0xbd5147d6	-0.0510939
63	0xbcecd1d3	-0.028908646
64	0xbd8cdb5c	-0.06877777
65	0x3d50ad80	0.050946712
66	0xbd7e362b	-0.062063377
67	0x3d85306a	0.06503375
68	0x3d91d55f	0.071207754
69	0xbc8d37a4	-0.017238446
70	0x3dadd4cf	0.08487856
71	0x3d7bfe01	0.061521534
72	0xbd80de2c	-0.06292376
73	0x3d65a4b6	0.056065284
74	0x3cc3f211	0.023919137
75	0x3d84fb69	0.06493265
76	0xbd63398d	-0.055474807
77	0x3d873964	0.06602743
78	0x3c923fd4	0.017852701
79	0x3d25a9dd	0.040445197
80	0xbd60bde9	-0.054868612
81	0x3d73c7c3	0.05951668
82	0xbcc3ce4b	-0.02390208
83	0x3d8da52c	0.0691627
84	0x3c0fcf79	0.008777493
85	0x3d9a8bad	0.07546172
86	0xbd6b262b	-0.057409447
87	0xbda49323	-0.080358766
88	0x3cdbf2a7	0.026849104
89	0x3d485c32	0.04891605
90	0x3c812650	0.01576534
91	0x3ccc8fab	0.02497085
92	0x3d74e65a	0.059789993
93	0xbd839d50	-0.06426489
94	0x3d49a1c1	0.049226526
95	0x3d196129	0.037446175
96	0xbd13cf2a	-0.03608624
97	0xbd3009b7	-0.042978015
98	0xbdbfa519	-0.09357662
99	0x3d780418	0.06055078
100	0xbc0a6945	-0.00844795
101	0x3cb15d2c	0.021650873
102	0xbd6d40e7	-0.057923224
103	0xbd9af3d3	-0.07566037
104	0x3d993f3d	0.07482765
105	0x3d9ace10	0.075588346
106	0x3d230295	0.039797384
107	0x3d86d71e	0.06583999
108	0x3d8c4740	0.06849527
109	0x3d4a8e5c	0.04945217
110	0x3d925a68	0.0714615
111	0xbb33bc82	-0.0027425592
112	0x3cdbd963	0.026837057
113	0xbdbf603d	-0.09344528
114	0xbd5d0400	-0.053958893
115	0xbbf83ba9	-0.0075754714
116	0x3b155985	0.0022788954
117	0x3da904b4	0.0825285
118	0x3d86595a	0.06560011
119	0x3cb118eb	0.021618327
120	0x3dbdbda7	0.09264689
121	0xbd194fd4	-0.037429646
122	0x3c81756e	0.015803065
123	0xbd984ad6	-0.07436149
124	0xbd92c938	-0.07167286
125	0x3d219b2b	0.03945462
126	0x3d521640	0.05129075
127	0xbb36da5e	-0.0027901153
128	0xbd71101c	-0.058853254
129	0x3dbd8442	0.09253742
130	0xbc9443cf	-0.01809874
131	0x3d9421fd	0.07233045
132	0xbd74c7ba	-0.059760787
133	0x3d27b67e	0.040945522
134	0xbcbfc969	-0.02341147
135	0xb8ec3b76	-0.000112644324
136	0xbc9c55bf	-0.019083856
137	0xbd66a8e1	-0.0563134
138	0xbd3a64b7	-0.045506205
139	0xbbf59682	-0.0074947486
140	0xbd359d51	-0.04433948
141	0x3ca30cb6	0.019903522
142	0x3d2b6d63	0.041852366
143	0x3ccf168e	0.02527931
144	0x3d10258d	0.03519206
145	0xbd27491f	-0.040841218
146	0xbdd3a91c	-0.103349894
147	0xbce45396	-0.027871888
148	0x3da79c52	0.081841126
149	0x3d86d039	0.06582684
150	0xbd03bcc9	-0.03216246
151	0x3cd25458	0.025674984
152	0xbd45a49b	-0.048252683
153	0x3d1319ce	0.03591328
154	0xbd79f830	-0.061027706
155	0x3d3d73e8	0.046253115
156	0xbb0e9ef8	-0.0021762233
157	0xbd938c5e	-0.07204507
158	0x3cc598fd	0.024120802
159	0x3d62973a	0.055320002
160	0x3d810198	0.06299132
161	0xbd951b49	-0.07280595
162	0xbcc76155	-0.024338404
163	0xbdc644de	-0.09681104
164	0xbd1dcbe8	-0.03852454
165	0xbd1b9b0f	-0.037989672
166	0xbd96bd1a	-0.07360287
167	0x3d2a6a50	0.041605294
168	0xbda0e1ea	-0.0785559
169	0xbc55da0d	-0.013052476
170	0xbd60c428	-0.05487457
171	0x3d93f874	0.07225123
172	0x3c599493	0.013280052
173	0xbcceb1d6	-0.025231283
174	0x3da5ec1d	0.08101676
175	0xbd27789b	-0.040886503
176	0xbd0fbd7f	-0.035092827
177	0xbde06c2f	-0.109581344
178	0x3c6d6cde	0.014491288
179	0x3d48927f	0.048967835
180	0x3d49303d	0.04911827
181	0xbdb3213d	-0.08746574
182	0xbd3f75fe	-0.046743385
183	0x3df0500a	0.11734016
184	0x3d146439	0.036228392
185	0xbd38e7a0	-0.04514277
186	0x3d39c0ce	0.04534989
187	0x3d874c6f	0.066063754
188	0x3d08a3af	0.033359226
189	0xbbfeba14	-0.007773647
190	0xbd95f6e2	-0.0732248
191	0xbd2ec2da	-0.042666294
192	0x3c3f2bec	0.011668187
193	0xbd7333ba	-0.059375502
194	0x3d4180df	0.04724204
195	0xbd84b9be	-0.0648074
196	0xbb8ed0a4	-0.004358368
197	0x3de89d65	0.113581456
198	0xbd4b6fe0	-0.04966724
199	0xbd9a0695	-0.07520787
200	0xbd9f521d	-0.07779334
201	0xbc4f5b7b	-0.012656088
202	0xbda71aa3	-0.081593774
203	0xbdd41ec4	-0.103574306
204	0xbd7b72a4	-0.061388627
205	0xbd67ff8a	-0.056640185
206	0x3dbf3b68	0.09337503
207	0xbd209d17	-0.039212313
208	0xbc079dde	-0.008277385
209	0x3a85fedb	0.0010223048
210	0x3ccb48ba	0.024814952
211	0x3c628a9d	0.013826993
212	0xbc7a943d	-0.015294132
213	0xbd819704	-0.06327632
214	0xbca833a8	-0.020532444
215	0x3d6d8078	0.057983845
216	0xbda6085a	-0.08107062
217	0x3dddaf38	0.10824436
218	0xbd24b664	-0.040213004
219	0x3d1c1b2e	0.038111858
220	0x3db0307a	0.08602996
221	0x3d29908b	0.041397613
222	0x3bdb2f5d	0.0066889958
223	0x3d13eff0	0.036117494
224	0x3c71faa9	0.014769235
225	0xbc3769ee	-0.011194689
226	0x3df11f5b	0.11773559
227	0xbcdcf6ed	-0.026973212
228	0xbd659f29	-0.05605999
229	0x3d32d989	0.04366449
230	0x3dcc87ac	0.09986815
231	0x3d908f82	0.07058622
232	0xbd69f260	-0.057115912
233	0x3d71e4db	0.059056144
234	0x3d35846a	0.044315733
235	0xbda0e913	-0.078569554
236	0x3d1913bc	0.037372336
237	0xbd9d25b7	-0.07673209
238	0x3c913a80	0.01772809
239	0x3aff5ae4	0.0019482044
240	0x3d5a9c8d	0.053371955
241	0xbc8db88b	-0.017299911
242	0xbc211e92	-0.009833949
243	0xbc999555	-0.018747965
244	0x3d83cf8d	0.064360715
245	0xbd065ac6	-0.032801412
246	0x3bc4f1d6	0.0060102744
247	0x3d9616ed	0.073285915
248	0x3c12bf56	0.008956751
249	0xbcfd969f	-0.03095561
250	0xbc2cbc52	-0.010542946
251	0xbc8b13ab	-0.016977152
252	0xbd07c38a	-0.033145465
253	0xbd14591d	-0.036217798
254	0xbd044f8d	-0.032302428
255	0xbcb32582	-0.021868471

gru.bias_ih_l0 f4 [384]
0	0xbc84535a	-0.016153026
1	0xbd030ac3	-0.031992685
2	0xbd9aae9b	-0.075528346
3	0xbd709795	-0.05873831
4	0x3dad7253	0.08469071
5	0x3d9638ae	0.073350295
6	0x3cfddcf7	0.030989153
7	0x3d9914ab	0.07474645
8	0x3d90582b	0.07048067
9	0x3d8385e0	0.06422019
10	0x3d399300	0.045306206
11	0x3b653e24	0.0034979666
12	0x3d1a5c44	0.037685648
13	0xbcb0790b	-0.021542093
14	0x3d514228	0.051088482
15	0x3d88108e	0.066437826
16	0x3c9a3c0c	0.01882746
17	0xbd44a229	-0.04800621
18	0x3d6a59f2	0.057214685
19	0x3d93605f	0.07196116
20	0xbbd3e353	-0.006466308
21	0x3d46c57a	0.048528172
22	0x3c315ae7	0.010824895
23	0x3d344ef1	0.044020597
24	0x3d01d09b	0.031693082
25	0x3c241dec	0.0100169
26	0xbd619d61	-0.05508173
27	0x3dc64753	0.09681573
28	0xbd1cfb71	-0.03832573
29	0xbd945d03	-0.07244303
30	0x3dee0c8b	0.11623486
31	0x3d1af5b6	0.037831984
32	0xbd8ff82b	-0.07029756
33	0x3decd2bf	0.11563634
34	0xbd074f65	-0.0330347
35	0x3d88a06f	0.06671225
36	0x3dfe897a	0.12428565
37	0xbdaf1286	-0.08548455
38	0xbd9a82bc	-0.07544467
39	0x3bcee014	0.0063133333
40	0xbcd0f4da	-0.02550738
41	0xbdb42ed8	-0.08797997
42	0xbd8208a6	-0.06349306
43	0x3d73df8b	0.05953936
44	0x3d3a2e49	0.045454297
45	0x3d20057c	0.03906773
46	0x3d271208	0.04078868
47	0x3d4b9c3d	0.049709547
48	0x3d66fe94	0.05639513
49	0xbc2eebd0	-0.010676339
50	0x3b731806	0.0037093177
51	0x3dcc3583	0.09971144
52	0x3c77fba5	0.01513568
53	0x3b7ec5c0	0.0038875192
54	0x3d5c9b79	0.053859208
55	0x3d5d511d	0.054032434
56	0x3bf6fc7d	0.007537423
57	0x3d2fcd28	0.04292026
58	0x3d9a441a	0.075325206
59	0xbc096b26	-0.008387363
60	0xbd445a9e	-0.04793798
61	0x3cac45f1	0.021029444
62	0x3da08916	0.07838647
63	0xbd5651c6	-0.05232408
64	0xbd15f3ed	-0.03660958
65	0xbd05696c	-0.03257124
66	0x3c82be04	0.015959747
67	0xbd939043	-0.0720525
68	0xbd3036cc	-0.04302101
69	0x3c142de0	0.009044141
70	0x3d949136	0.07254259
71	0x3d4512ad	0.048113514
72	0x3db7cdee	0.08974825
73	0x3d9526bb	0.07282778
74	0x3cb1587d	0.02164864
75	0x3db2d189	0.08731372
76	0xbd043f28	-0.032286793
77	0x3c0d47f1	0.008623109
78	0x3c354af8	0.011065237
79	0x3c014373	0.007889616
80	0x3a63676a	0.00086747727
81	0xbd120093	-0.03564508
82	0x3d90e3fe	0.07074736
83	0x3d7c46af	0.061590847
84	0xbd921b4f	-0.07134115
85	0x3c648290	0.013947144
86	0xbd85c7f5	-0.065322794
87	0x3d9da1ef	0.07696902
88	0x3cea0983	0.028568989
89	0x3d32b08d	0.043625403
90	0x3dec82b9	0.11548371
91	0x3d9ca3df	0.076484434
92	0x3d52e975	0.051492173
93	0xbce9a6d2	-0.028521929
94	0xbc2a0530	-0.010377213
95	0x3d7d40c5	0.061829347
96	0x3da288de	0.079362616
97	0xbce7c726	-0.028293204
98	0x3d9b943e	0.07596634
99	0x3d73350e	0.05937677
100	0x3d9a8f2d	0.0754684
101	0xbbdfd67e	-0.0068309894
102	0x3b92fb7f	0.004485547
103	0xbd2d485c	-0.042305335
104	0xbd97b1d4	-0.07406965
105	0xbc4d8496	-0.012543818
106	0x3c853f0d	0.016265417
107	0xbd859d11	-0.06524099
108	0x3c8d43f9	0.017244326
109	0xbcfccffa	-0.03086089
110	0xbdaa1dd2	-0.08306469
111	0x3da5264d	0.08063946
112	0xbb6c44fc	-0.003605186
113	0xbb846041	-0.0040397947
114	0xbcbb44cd	-0.022859955
115	0x3d515834	0.051109508
116	0x3c21d4bc	0.00987738
117	0xbd0a59cd	-0.033777047
118	0xbd34b101	-0.044114117
119	0xbd95cbb8	-0.07314247
120	0xbcb8502e	-0.02249917
121	0x3d26fe80	0.040770054
122	0x3d2e8743	0.042609464
123	0xbd6e4e19	-0.05817995
124	0x3c9376d9	0.018001007
125	0xbdafa650	-0.085766435
126	0xbd9e1726	-0.07719259
127	0x3d4bc309	0.049746547
128	0xbdabf71c	-0.08396742
129	0xbc55696f	-0.013025626
130	0xbdb68ffb	-0.08914181
131	0x3d48889e	0.048958413
132	0xbd7a405b	-0.06109653
133	0xbdb70f0e	-0.08938418
134	0x3d8a3933	0.06749191
135	0xbc6894d0	-0.014195636
136	0xbd944ca3	-0.0724118
137	0x3d214d45	0.03938033
138	0xbd9203ff	-0.071296684
139	0x3d47ad02	0.048748977
140	0xbcbbd79e	-0.022929963
141	0x3d5f5e20	0.054533124
142	0x3d7164a4	0.05893387
143	0xbd239744	-0.03993918
144	0x3d5c0af5	0.053721387
145	0x3d1279a6	0.035760544
146	0xbc8bf0fc	-0.017082684
147	0x3d9b0a3a	0.0757031
148	0x3d6ef165	0.05833568
149	0xbd42cf05	-0.04756071
150	0x3d48fd54	0.049069718
151	0xbd3a2093	-0.04544122
152	0xbc0275c8	-0.007962652
153	0xbd91f6d2	-0.07127155
154	0x3d384978	0.04499194
155	0xbdc2da0b	-0.09514245
156	0xbd31273c	-0.043250307
157	0x3d40222d	0.046907593
158	0xbd42829c	-0.04748784
159	0x3d51a45d	0.05118214
160	0x3c50a178	0.01273381
161	0xbcb36a39	-0.021901237
162	0x3cfb15f1	0.03065011
163	0xbdcca6fe	-0.09992789
164	0x3aacd7c6	0.0013186864
165	0xbdb991f8	-0.090610445
166	0x3d1f08e0	0.038826823
167	0xbc8c0bf7	-0.017095549
168	0x3da0f880	0.078598976
169	0xbd39362c	-0.045217678
170	0x3ce159bc	0.027508609
171	0xbdc037d4	-0.09385648
172	0x3d5c958f	0.053853568
173	0xbdb9446e	-0.09046255
174	0x3d8724d7	0.065988235
175	0x3c45d22c	0.012074035
176	0x3da06587	0.07831865
177	0x3daff868	0.085923016
178	0xbb6fe6c5	-0.0036606055
179	0xbd856927	-0.06514197
180	0x3d70b21a	0.0587636
181	0xbd42b901	-0.047539715
182	0xbd4933e5	-0.049121756
183	0x3d0e02e6	0.034670733
184	0xbd2b223c	-0.041780695
185	0x3d7eb4cd	0.062184144
186	0x3dadc5a1	0.0848496
187	0xbcf70fe3	-0.030158943
188	0xbc53eb9a	-0.01293459
189	0xbccbd403	-0.024881369
190	0xbbe6f49b	-0.007048202
191	0xbd8f636b	-0.07001384
192	0xbd46758a	-0.048451938
193	0x3d8b91f3	0.06814947
194	0x3d37f242	0.04490877
195	0x3c802be9	0.015645938
196	0xbd790511	-0.060795847
197	0x3d034c44	0.032055154
198	0xbc8c9178	-0.017159209
199	0xbd044e7f	-0.032301422
200	0x3cb3cef1	0.021949263
201	0xbd97fc35	-0.074211515
202	0x3c32d20a	0.010914335
203	0xbc2de0be	-0.010612665
204	0xbda1108e	-0.07864486
205	0x3d31907a	0.043350674
206	0x3bc6cfdc	0.0060672592
207	0x3d4ed73b	0.05049823
208	0xbc956457	-0.018236322
209	0x3c013d63	0.007888171
210	0xbd2e8a94	-0.042612627
211	0x3d5534ca	0.052052297
212	0xbd7e7bd2	-0.062129803
213	0x3ba8b51c	0.005148543
214	0x3da546ed	0.08070169
215	0xbd908d28	-0.070581734
216	0xbd122701	-0.03568173
217	0x3d15d568	0.036580473
218	0xbcce16cf	-0.02515736
219	0xbd454bc5	-0.048167963
220	0xbdd74ad9	-0.10512323
221	0x3d948b3e	0.07253121
222	0x3d1642ad	0.03668468
223	0xbc881d7c	-0.016615622
224	0x3cd280c4	0.025696166
225	0x3d9af577	0.0756635
226	0x3dad73f5	0.08469383
227	0xbd2b586b	-0.04183237
228	0xbcb27e3f	-0.021788714
229	0xbd749ee4	-0.059721842
230	0xbd8b59b9	-0.068042226
231	0x3d27dcf6	0.04098221
232	0xbdabdb5a	-0.08391447
233	0x3d90eeeb	0.0707682
234	0x3dadc133	0.084841155
235	0xbdb037cf	-0.08604395
236	0x3d9cde83	0.07659628
237	0x3cafd7c7	0.021465195
238	0xbda6a9d6	-0.081378624
239	0xbd3d8f31	-0.046279136
240	0x3bfa699f	0.0076419855
241	0xbcdd216e	-0.02699348
242	0xbd82ba20	-0.06383157
243	0xbcc36bf0	-0.02385518
244	0x3d9b5de1	0.07586265
245	0xbd631e32	-0.05544872
246	0xbc7efc30	-0.015563056
247	0xbd0bd188	-0.03413537
248	0x3c28a948	0.010294266
249	0xbd1b1b9e	-0.037868135
250	0xbdb7a824	-0.08967617
251	0xbd0ad674	-0.033895925
252	0x3c86a1c3	0.016434556
253	0x3cd3ff2c	0.025878511
254	0xbdb2847b	-0.08716675
255	0xbd96ee13	-0.07369628

gru.bias_hh_l0 f4 [384]
0	0x3b4581d2	0.0030137193
1	0xbca23183	-0.019799
2	0x3d383d2c	0.044980213
3	0xbd6f4432	-0.058414645
4	0xbccbea39	-0.02489196
5	0xbd27d67e	-0.04097604
6	0xbd95b877	-0.073105745
7	0x3d38b42b	0.045093697
8	0x3cfd83fa	0.03094672
9	0xbd55f088	-0.05223134
10	0xbd7e8429	-0.062137756
11	0x3da3f4df	0.0800569
12	0xbd0f63ce	-0.03500729
13	0x3da3f546	0.080057666
14	0xbc41840a	-0.011811266
15	0xbd9eff5e	-0.07763551
16	0xb8a03e49	-7.640996e-05
17	0xbdac5e0e	-0.08416377
18	0x3cd46d33	0.025930976
19	0x3c94c54f	0.01816049
20	0xbb4ca92c	-0.0031228764
21	0xbd8e9dae	-0.06963669
22	0x3cace23a	0.021103967
23	0x3d465025	0.048416276
24	0x3c657ba9	0.014006534
25	0x3da6a92b	0.08137735
26	0xbd7f3c06	-0.062313102
27	0x3daba60f	0.083812825
28	0xbd0d11b0	-0.034440696
29	0x3d631da4	0.05544819
30	0x3bbf4b08	0.005837802
31	0x3cf9611d	0.030441815
32	0x3d1091c2	0.035295255
33	0x3d7ffb49	0.062495504
34	0xbba5b719	-0.0050572273
35	0xbd3a83e2	-0.04553593
36	0x3def7d25	0.11693791
37	0x3d2f1f84	0.042754665
38	0xbccc4bf3	-0.02493856
39	0xbd8dd1c9	-0.06924779
40	0x3d858ce2	0.06521012
41	0xbd734787	-0.059394386
42	0xbd597f93	-0.05310018
43	0x3bcea5a5	0.0063063675
44	0xbc3f419b	-0.011673356
45	0xbcde0db4	-0.027106144
46	0xbcb884dc	-0.02252429
47	0x3d4046c1	0.046942476
48	0x3d3e57ac	0.04647033
49	0xbcec2d2f	-0.028830139
50	0xbd259e98	-0.04043445
51	0x3d94d5c5	0.07267336
52	0xbd4ae7df	-0.049537536
53	0x3dac9d49	0.08428437
54	0xbd943acf	-0.07237779
55	0xbc0df7ff	-0.008665084
56	0x3c873e89	0.016509311
57	0xbda2a1ba	-0.07941003
58	0x3c894137	0.01675473
59	0xbc852ee9	-0.01625772
60	0x3caf60f2	0.021408532
61	0x3daac3cf	0.08338129
62	0x3dae8b72	0.08522691
63	0xbda5862d	-0.080822326
64	0xbcab4bbe	-0.02091014
65	0x3cd6c687	0.026217712
66	0xbd061457	-0.03273424
67	0x3d530fa7	0.0515286
68	0x3d7c5a96	0.061609827
69	0xbb609fd6	-0.0034274957
70	0xbdac2d3c	-0.08407065
71	0x3d0aa447	0.033848073
72	0x3da6337d	0.08115289
73	0x3cba0de6	0.022711705
74	0xbb37b25d	-0.0028029897
75	0x3d35a6b3	0.04434843
76	0x3ce69d7b	0.028151264
77	0x3cd85610	0.026408225
78	0x3d05d16c	0.032670423
79	0xbd8f68da	-0.07002421
80	0xbbb3b7d4	-0.0054845605
81	0xbb93d374	-0.004511291
82	0xbca04310	-0.019563228
83	0x3d88c60a	0.06678398
84	0xbd5de9eb	-0.05417816
85	0xbdb7166b	-0.08939823
86	0x3c4f4b15	0.012652178
87	0xbc0f02c3	-0.008728686
88	0xbd90e667	-0.07075196
89	0xbdba1206	-0.09085469
90	0x3dc4d9c5	0.09611849
91	0xbb03880b	-0.0020070102
92	0x3d8262f1	0.06366528
93	0x3d8e1a8e	0.06938659
94	0x3d688e35	0.056776244
95	0xbd8ca6a2	-0.0686772
96	0xbd55ee2e	-0.0522291
97	0xbd2390ac	-0.03993289
98	0x3d97e18a	0.07416065
99	0x3d9d14f1	0.0767001
100	0x3db12567	0.08649712
101	0x3d5f1f8e	0.054473452
102	0x3ce7333d	0.028222675
103	0x3dbc7ea3	0.092038415
104	0x3d174921	0.036934976
105	0xbcfff851	-0.031246336
106	0xbb361550	-0.00277837
107	0x3cbd6824	0.023120947
108	0x3d69e0a7	0.05709901
109	0x3c88e4c8	0.016710654
110	0x3d8fc5d5	0.07020155
111	0x3d409050	0.047012627
112	0xbb8dfd71	-0.004333191
113	0xbd1658eb	-0.036705893
114	0x3d72d41c	0.059284315
115	0x3db918ac	0.09037909
116	0x3d673910	0.056450903
117	0x3c136668	0.0089965835
118	0x3d16a9da	0.036783077
119	0xbcbe1677	-0.023204071
120	0x3c9cc239	0.019135581
121	0xbd321f84	-0.043487087
122	0x3dbb3e74	0.09142771
123	0x3c8a7cf5	0.016905287
124	0x3d93fb5d	0.07225678
125	0x3af731e5	0.0018859474
126	0x3d96f820	0.07371545
127	0x3d8e064a	0.06934793
128	0x3d5fb81d	0.054618943
129	0xbd0ccb15	-0.03437336
130	0x3d085fee	0.03329461
131	0xbdd0398a	-0.10167225
132	0x3da5ffa2	0.08105399
133	0xbd4d93db	-0.050189834
134	0x3d867038	0.06564373
135	0xbdbdc701	-0.092664726
136	0x3d26b96d	0.04070418
137	0xbc8bfff3	-0.01708982
138	0xbb6b1fe6	-0.0035877167
139	0x3db9b447	0.09067588
140	0xbcf5ac5c	-0.029989414
141	0x3c78a46f	0.015175923
142	0x3d6463d7	0.055759277
143	0x3d056304	0.03256513
144	0x3a6e898b	0.0009099475
145	0x3d20497d	0.039132584
146	0xbc33ad78	-0.010966651
147	0xbd022152	-0.031770058
148	0xbd853e91	-0.06506074
149	0x3d8b2e85	0.06795982
150	0xbbd81925	-0.0065947943
151	0x3cf91e65	0.030410001
152	0xbb415f13	-0.0029506132
153	0xbcc1870c	-0.023623966
154	0xbd924a5b	-0.071430884
155	0xbdc1fd2a	-0.09472115
156	0xbda624ef	-0.08112513
157	0xbd1227f7	-0.035682645
158	0x3d8dc348	0.069220126
159	0xbc8471e5	-0.01616759
160	0x3c4f639e	0.012658028
161	0xbd284f87	-0.04109147
162	0xbd8fb511	-0.070169576
163	0xbcfe3f4f	-0.031036047
164	0x3d307521	0.043080453
165	0xbbc1f426	-0.0059189973
166	0x3d0d7666	0.03453674
167	0x3d8b8c55	0.068138756
168	0x3c9fb5a7	0.019495798
169	0xbd19c6f8	-0.037543267
170	0x3d822a29	0.06355698
171	0x3d426810	0.047462523
172	0x3d7ff06c	0.062485144
173	0x3d8f8c8f	0.07009231
174	0x3dc5dd82	0.0966139
175	0xbd9a5925	-0.07536534
176	0xbd0733a0	-0.033008218
177	0xbd9fec81	-0.078087814
178	0xbd8e0007	-0.06933599
179	0x3d63b619	0.055593584
180	0xbd73dcc7	-0.05953672
181	0x3d884bf2	0.066551104
182	0xbc9e4ad9	-0.0193228
183	0x3d4a78b6	0.049431525
184	0xbc635eaf	-0.013877555
185	0x3d2e99e2	0.042627223
186	0xbc5a6e8a	-0.013332019
187	0x3d25a72b	0.040442627
188	0xbd475843	-0.048668157
189	0xbc1fbf0c	-0.009750139
190	0x3d91e4b9	0.071237035
191	0x3b919e26	0.0044439016
192	0xbd46a737	-0.048499312
193	0xbd47e07d	-0.048798073
194	0xbd31e1e1	-0.043428306
195	0xbca584f5	-0.020205
196	0x3da0b8f2	0.078477755
197	0x3c077035	0.008266498
198	0xbd0ee68f	-0.034887847
199	0x3da82948	0.08210999
200	0x3d5813e8	0.05275336
201	0x3d4f2d38	0.050580233
202	0x3d39af28	0.045333058
203	0x3c7214a0	0.014775425
204	0x3d5a1ce2	0.0532502
205	0xbdae84a8	-0.08521396
206	0xbc691ff9	-0.014228814
207	0x3d166427	0.036716606
208	0xbba695c6	-0.0050837724
209	0x3b9460c1	0.0045281355
210	0x3da7cc8d	0.08193312
211	0xbd8d3c2a	-0.06896241
212	0xbdd928c3	-0.10603478
213	0xbd420e6a	-0.047377028
214	0xbdb01f23	-0.08599689
215	0x3c5c8299	0.013458871
216	0x3c815dd7	0.015791817
217	0xbaa8f364	-0.0012889919
218	0x3d01cf76	0.03169199
219	0xbdb42a05	-0.08797077
220	0x3d43459b	0.047673803
221	0xbd448252	-0.047975846
222	0xbcd9c02f	-0.026580898
223	0xbcddcefd	-0.027076239
224	0xbda1a73b	-0.07893225
225	0xbd3d37d2	-0.046195813
226	0xbd9b9a15	-0.07597748
227	0x3c3bcb13	0.011461991
228	0x3cf58124	0.029968806
229	0x3dbadf65	0.091246404
230	0x3db3eb77	0.08785146
231	0x3d4f9d03	0.050686847
232	0x3d872cf0	0.06600368
233	0x399ff516	0.00030509447
234	0xbd7242e8	-0.059145838
235	0xbac9a076	-0.0015382904
236	0x3ce94ec0	0.028479934
237	0xbdb27626	-0.08713941
238	0x3d2de965	0.04245891
239	0xbc8d193e	-0.01722395
240	0xbde242cb	-0.11047896
241	0x3d4310c1	0.0476234
242	0x3d4a8b38	0.049449176
243	0xbdb6d69a	-0.08927651
244	0xbd16d2bc	-0.036822066
245	0x3c7ecf04	0.015552286
246	0x3d9e11c2	0.07718231
247	0x3d8468a6	0.064652726
248	0x3d48e261	0.049044017
249	0x3bdfeb41	0.0068334644
250	0xbde72245	-0.11285833
251	0xbdaf9d46	-0.085749194
252	0xbceb6e96	-0.028739255
253	0xbd9eab07	-0.077474646
254	0xbcb6089c	-0.022220902
255	0xbd82cf4a	-0.063871935

gru.weight_ih_l0_reverse f4 [384, 36]
0	0xbc008aa6	-0.007845556
1	0x3ccc6460	0.024950206
2	0xbdaa550f	-0.08317005
3	0xbd822476	-0.063546106
4	0x3bf6e7c0	0.007534951
5	0x3d9462de	0.0724542
6	0x3cc575dc	0.024104051
7	0xbdb8e97d	-0.09028909
8	0x3d220745	0.039557714
9	0x3c5b45ec	0.01338337
10	0xbd5718be	-0.05251383
11	0xbc4e2035	-0.012580921
12	0x3d508a0a	0.050912894
13	0x3dadaada	0.08479853
14	0x3a16b780	0.00057493895
15	0xbda22872	-0.079178706
16	0xbd832a76	-0.06404583
17	0xbdb1c9bf	-0.08681058
18	0xbd84788e	-0.064683065
19	0x3d678ac6	0.05652883
20	0x3d577d2e	0.052609615
21	0x3d3398fb	0.043847065
22	0xbc9c1171	-0.019051285
23	0xbd8c8312	-0.06860937
24	0xbd21c8d9	-0.039498184
25	0xbcd9c78c	-0.02658441
26	0x3d93be4f	0.07214033
27	0x3da625f1	0.081127055
28	0x3cd8ac74	0.02644942
29	0x3b84fc30	0.0040583834
30	0x3d989371	0.07449997
31	0x3c159f94	0.009132285
32	0xbcc66e78	-0.024222597
33	0x3c915c4f	0.017744211
34	0x3d670649	0.05640248
35	0x3d4fb185	0.050706405
36	0x3d4abda7	0.049497273
37	0xbd74f700	-0.05980587
38	0x3d2d780a	0.042350806
39	0x3c138de3	0.009005996
40	0x3ba0cb80	0.0049070716
41	0xbb143191	-0.0022612552
42	0x3d866430	0.06562078
43	0xbcd998c9	-0.026562111
44	0xbd81ea30	-0.06343496
45	0xbd1878e7	-0.037224676
46	0x3da3fa3e	0.08006714
47	0x3cdafb96	0.026731294
48	0xbd2bc771	-0.04193825
49	0xbd00ae20	-0.03141606
50	0x3d0be240	0.034151316
51	0x3d16e164	0.036836043
52	0xbbfbca3d	-0.007684021
53	0x3cbeda30	0.0232974
54	0x3d8b1c63	0.06792524
55	0x3bf3bb50	0.007438101
56	0xbd461ecc	-0.048369214
57	0xbcd3cf40	-0.02585566
58	0x3d99e11d	0.0751364
59	0xbcba8004	-0.02276612
60	0x3caebb8e	0.021329667
61	0x3c18f7ee	0.009336455
62	0x3dcb231e	0.099188074
63	0xbc8f5d76	-0.01750062
64	0x3d4eef32	0.050521083
65	0xbd742fe0	-0.05961597
66	0x3dbeadbe	0.093104824
67	0xbd75f12a	-0.060044445
68	0x3cd1a224	0.02559001
69	0x3d8c9454	0.06864229
70	0xbc2f2704	-0.010690454
71	0x3d65ab8f	0.056071814
72	0xbae23c23	-0.0017260354
73	0x3d9ff8d9	0.07811136
74	0x3d1e01dc	0.038575992
75	0x3d8cb68a	0.06870754
76	0xbd9c27b2	-0.07624759
77	0xbc7b7b8a	-0.015349278
78	0x3dbccce8	0.0921877
79	0x3db60a0c	0.08888635
80	0x3d3db51a	0.04631529
81	0x3dbdfd44	0.09276822
82	0x3d854c01	0.06508637
83	0x3daf551e	0.08561157
84	0xbc08aace	-0.008341504
85	0x3dc4bd5d	0.09606431
86	0x3da6277f	0.08113002
87	0x3d133870	0.035942495
88	0xbc5fef48	-0.013667889
89	0x3da5f5f1	0.0810355
90	0x3da64591	0.081187375
91	0x3d94e5ee	0.07270418
92	0x3db286b4	0.08717099
93	0x3d8b4059	0.06799383
94	0x3d262c34	0.0405695
95	0xbd1a57e4	-0.037681475
96	0x3a80a1e4	0.0009813872
97	0x3d870ff9	0.065948434
98	0xbc275fb9	-0.010215693
99	0x3e08111a	0.13287774
100	0xbceb4ed2	-0.028724108
101	0xbd6d01d1	-0.05786306
102	0x3d8855ee	0.06657015
103	0xbd219cee	-0.0394563
104	0xbdb163dc	-0.08661625
105	0xbd6ffa7d	-0.058588494
106	0xbd2b9072	-0.0418858
107	0xbcae3d04	-0.021269329
108	0x3d574389	0.05255464
109	0x3db0c9a5	0.08632211
110	0xbb5e1ce6	-0.0033891737
111	0x3d599afa	0.053126313
112	0xbc278e10	-0.010226741
113	0x3c8a3807	0.016872419
114	0x3d93b70f	0.0721265
115	0x3acb21bb	0.0015497723
116	0x3c8bd777	0.017070515
117	0x3dafe9fe	0.08589552
118	0x3ca3a9c2	0.019978408
119	0xbdd666e6	-0.10468845
120	0x3d6eda26	0.05831351
121	0x3d92ce97	0.0716831
122	0xbd642872	-0.055702634
123	0x3d5c1450	0.05373031
124	0xbc88d0cb	-0.016701123
125	0xbce60670	-0.028079242
126	0xbcf9239b	-0.030412486
127	0xbcae8754	-0.021304764
128	0x3dae79e5	0.08519343
129	0x3d8f5801	0.06999207
130	0x3d1b7f38	0.037963122
131	0x3da8a38a	0.082343176
132	0x3ccceeea	0.025016267
133	0x3c353168	0.011059143
134	0xbd5a53f3	-0.053302716
135	0x3be91afc	0.0071138125
136	0xbc6a1cf6	-0.014289131
137	0xbcae8ec4	-0.02130831
138	0xbb40f71e	-0.0029444168
139	0x3c958213	0.0182505
140	0xbd9c9e6a	-0.076474026
141	0xbd9232f1	-0.071386226
142	0x3d8ee147	0.06976562
143	0xbdb7035f	-0.0893619
144	0x39892ea8	0.00026165438
145	0x3c22ac90	0.009928837
146	0xbd142861	-0.03617132
147	0xbd33873b	-0.043830138
148	0x3d4c7a5a	0.04992137
149	0x3d8909de	0.06691335
150	0xbdab39fb	-0.08360668
151	0x3c9899ec	0.018628083
152	0xbda09684	-0.078412086
153	0xbd3ecbe1	-0.046581153
154	0x3d012675	0.031530816
155	0xbc053b9b	-0.008131887
156	0x3db7c671	0.089733966
157	0x3d2f4f5f	0.042800304
158	0x3dab3361	0.08359409
159	0xbd80e016	-0.06292741
160	0x3c88f884	0.016720064
161	0xbd4c234a	-0.04983834
162	0xbd07ce48	-0.03315571
163	0xbda812ff	-0.08206748
164	0x3d91c7c6	0.07118182
165	0x3d9d4f33	0.07681122
166	0x3da74ad2	0.08168568
167	0xbd37fdda	-0.044919826
168	0x3d9950b6	0.074860975
169	0xbd89029e	-0.06689952
170	0xbd538624	-0.0516416
171	0x3d0792ae	0.03309887
172	0xbda73b78	-0.0816564
173	0xbbeb0d90	-0.0071732476
174	0x3cd12cd1	0.025534065
175	0x3d1a6b2d	0.037699867
176	0x3d5dd65a	0.0541595
177	0x3cbb3fad	0.022857511
178	0xbc3cffa4	-0.011535559
179	0x3d8acd1f	0.06777405
180	0x3cc129cf	0.023579506
181	0xbc432438	-0.011910491
182	0x3c1f1bf8	0.009711258
183	0xbd2e3fba	-0.042541243
184	0x3cc40754	0.023929276
185	0x3da239f9	0.07921214
186	0xbbcdf67a	-0.006285486
187	0xbd9a0712	-0.0752088
188	0x3db58247	0.08862739
189	0xbd5d896b	-0.05408613
190	0x3aa04fe7	0.0012230844
191	0x3caf38fd	0.021389479
192	0x3c4c854b	0.012482951
193	0x3c1b5700	0.009481192
194	0x3d9c7233	0.07638969
195	0xbb240728	-0.002502868
196	0x3d66d796	0.056357943
197	0xbd8dfa33	-0.06932487
198	0xbd6ac1f5	-0.057313878
199	0xbd9de46b	-0.07709583
200	0x3cdd3398	0.02700214
201	0x3d6d5c25	0.057949204
202	0x3d1ead8f	0.038739737
203	0x3d3d29e8	0.046182543
204	0x3c84979a	0.01618557
205	0x3d56707e	0.052353375
206	0x3b713f47	0.0036811398
207	0xbcde28c0	-0.02711904
208	0xbc265b97	-0.010153673
209	0xbcb363b0	-0.02189812
210	0xbd97dbe5	-0.074149884
211	0x3d9b3b35	0.07579652
212	0xbca7daa8	-0.020490006
213	0x3cdcf5bb	0.026972642
214	0xbd3227c9	-0.043494973
215	0xbd48a0b7	-0.048981395
216	0x3d3fb38d	0.046802092
217	0x3ceb9e9c	0.028762154
218	0x3ae27f34	0.0017280341
219	0x3c69a90e	0.014261497
220	0xbd18a0f4	-0.03726287
221	0xbc863b09	-0.016385572
222	0x3d459472	0.04823727
223	0xbdc52b3a	-0.096273854
224	0xbca1942c	-0.019723974
225	0x3d938bd0	0.072044015
226	0xbb3870c6	-0.002814339
227	0xbddb06db	-0.10694667
228	0x3db9c6c3	0.09071114
229	0x3d962d36	0.07332842
230	0xbd7b9300	-0.061419487
231	0xbb6ea383	-0.0036413379
232	0xbd96842e	-0.0734943
233	0x3d686cfa	0.056744553
234	0x3ca56713	0.020190751
235	0x3da627f6	0.08113091
236	0x3d060a5c	0.032724723
237	0x3bb5f72f	0.005553148
238	0x3d8f3438	0.06992382
239	0xbd8c860d	-0.06861506
240	0xbd8ab910	-0.06773579
241	0x3c94f062	0.01818103
242	0xbd64cbfb	-0.055858593
243	0x3d6721ed	0.05642884
244	0x3c9e11f1	0.019295665
245	0x3cec5a8c	0.02885177
246	0x3d8a502e	0.06753574
247	0x3c45533a	0.012043769
248	0xbd8307ac	-0.06397948
249	0xbd8d05ad	-0.06885848
250	0xbd76f7f0	-0.060295045
251	0x3cca7e1a	0.024718333
252	0x3bcd9d4f	0.006274856
253	0xbda77ebd	-0.0817847
254	0xbd938e71	-0.07204903
255	0x3d5c6166	0.053803824
